workspace/approaches/Glintr100_siamese_classifier_head_training/scripts/siamese_head_v1.pth (torch, 528143 bytes, 3 tensors)

classifier.0.weight f4 [256, 512]
0	0x3cb19e8d	0.021682048
1	0xbd93a807	-0.07209783
2	0xbcd67b41	-0.026181819
3	0xbd913ec8	-0.07092053
4	0x3d029476	0.031879865
5	0xbe228d17	-0.15874134
6	0xbd0d51b1	-0.034501735
7	0xbb21997d	-0.0024658137
8	0x3c2d2df0	0.010570034
9	0xbdfe8dce	-0.12429391
10	0x3ca3fda6	0.02001841
11	0xbc55b107	-0.013042695
12	0xbd338621	-0.043829087
13	0xb9b8169c	-0.0003511206
14	0xbd5f35a9	-0.054494534
15	0x3d0ff5af	0.03514641
16	0xbd8e5bc5	-0.069510974
17	0xbe02f058	-0.12786996
18	0xbdbe507d	-0.09292696
19	0xbd20fe51	-0.039305035
20	0xbd2e82d5	-0.04260524
21	0xbd29a2e9	-0.04141513
22	0x3e06de71	0.13170792
23	0xbe0ac5bb	-0.1355199
24	0x3c917d3b	0.01775991
25	0x3d42677d	0.047461975
26	0xbbb46aea	-0.005505909
27	0x3cbb3c53	0.022855913
28	0xbc8fd1d8	-0.017556116
29	0x3da93129	0.0826133
30	0x3cadc634	0.021212675
31	0xbdf5b754	-0.11997858
32	0xbd85de96	-0.065365955
33	0xbde79cbf	-0.11309194
34	0xbcaedb36	-0.021344762
35	0x3d93f0d2	0.07223667
36	0xbc2baeef	-0.010478719
37	0xbd8dc0c6	-0.06921534
38	0x3c8f131a	0.017465163
39	0xbb965be9	-0.0045885933
40	0x3cb16ec2	0.021659259
41	0xbd8f6a05	-0.070026435
42	0xbdb33134	-0.08749619
43	0xbdaf7ccf	-0.08568727
44	0x3d00b293	0.0314203
45	0x3ced1432	0.028940294
46	0x3d5a138e	0.053241305
47	0xbca0184e	-0.01954284
48	0xbd80b130	-0.06283796
49	0xbce8a4f4	-0.028398968
50	0x3a93ef6e	0.0011286566
51	0xbd7fa990	-0.062417567
52	0x3caf8913	0.021427667
53	0xbc9f3c01	-0.019437792
54	0xbc930207	-0.017945303
55	0xbd120ae5	-0.03565492
56	0x3ca7fa46	0.020505082
57	0x3c56c8ae	0.013109369
58	0xbd7b3a3b	-0.06133483
59	0x3cd8ee2d	0.026480759
60	0xbd8996a6	-0.06718187
61	0x3b26e082	0.0025463407
62	0x3db7b2ff	0.08969688
63	0xbd53ba1e	-0.051691167
64	0xbd17d486	-0.037067913
65	0x3b08cbea	0.0020873495
66	0xbd5e032e	-0.05420225
67	0x3d51125d	0.051042903
68	0x3cf87af5	0.030332068
69	0xbc5cad5b	-0.013469066
70	0xbd689d28	-0.0567905
71	0xbb98e23e	-0.004665642
72	0xbc9a7e77	-0.018859131
73	0xbd82fba7	-0.06395655
74	0xbdf62403	-0.120185874
75	0xbdbaaf7b	-0.091155015
76	0xbcb751c5	-0.022377858
77	0xbdadfc21	-0.084953554
78	0xbda666c9	-0.081250735
79	0x3d7bc37a	0.061465718
80	0xbda16d99	-0.07882232
81	0xbb621e94	-0.003450309
82	0x3c787b68	0.015166141
83	0x3daf5ee5	0.085630216
84	0xbbd98971	-0.0066386987
85	0xbdb11020	-0.08645654
86	0xbd9ac468	-0.07556993
87	0x3e1006b9	0.14065064
88	0x3c38836b	0.011261801
89	0x3d79c2f6	0.060976945
90	0x3daa3d9f	0.083125345
91	0xbc0741cb	-0.008255432
92	0xbcedaa13	-0.029011762
93	0xbd3fa293	-0.046785902
94	0xbda20a22	-0.07912089
95	0xbcc84312	-0.024446044
96	0x3e25ecb5	0.16203578
97	0xbd92237c	-0.07135674
98	0x3d7c7234	0.06163235
99	0xbda36bc3	-0.07979538
100	0xbc0813b7	-0.008305482
101	0xbd24e521	-0.040257577
102	0x3cb6a732	0.022296522
103	0x3d803389	0.062598296
104	0xbc70050a	-0.014649639
105	0xbda7cec0	-0.08193731
106	0xbda87243	-0.08224919
107	0xbbc49892	-0.005999633
108	0xbbe9c3ba	-0.007133928
109	0x3db96486	0.090523764
110	0xb9d35944	-0.00040311564
111	0xbdc2f827	-0.095199876
112	0x3dac44ae	0.08411537
113	0x3c1dadcb	0.009623955
114	0xbcb2ea96	-0.021840375
115	0x3ca3a671	0.019976826
116	0x3c17b058	0.009258352
117	0xbda8dd48	-0.08245331
118	0xbd40b508	-0.047047645
119	0xbbc08e54	-0.005876342
120	0xbdae42ca	-0.08508833
121	0xbe04e1d2	-0.12976769
122	0x3ba06a7a	0.0048955055
123	0x3d2d0e69	0.04225007
124	0x3b9bf3b3	0.004759276
125	0x3d9a85d9	0.07545061
126	0x3c76f675	0.015073408
127	0xbdfd8817	-0.12379473
128	0x3c2f1156	0.010685286
129	0x3d2a788f	0.04161888
130	0x3d34f9e0	0.044183612
131	0x3e30f1a3	0.17279677
132	0xbd0fce9c	-0.035109147
133	0xbe008126	-0.12549266
134	0x3c987c69	0.01861401
135	0xbb28e6f5	-0.0025772427
136	0xbd9be702	-0.076124206
137	0xbd020a6b	-0.031748217
138	0xbdb3a5ef	-0.08771884
139	0x3c2466f6	0.010034313
140	0xbdb8934d	-0.090124704
141	0x3bb85c03	0.005626203
142	0xbd8f3d83	-0.06994154
143	0x3cb58589	0.022158401
144	0xbe0d85e7	-0.13820611
145	0xbde93732	-0.11387481
146	0x3c6c7e48	0.014434405
147	0xbd9653a1	-0.0734017
148	0xbdc1f1c6	-0.09469943
149	0xbdebe23f	-0.115177624
150	0xbd8ccba2	-0.068747774
151	0x3de78763	0.1130512
152	0x3c88a3f7	0.016679747
153	0x3d3802cf	0.044924553
154	0x3d1623a6	0.03665509
155	0xbdbc6341	-0.09198619
156	0xbc57035d	-0.01312336
157	0xbd8717cb	-0.06596335
158	0x3c62c033	0.013839769
159	0x3c5aae94	0.013347287
160	0xbdff6c80	-0.124718666
161	0xbd1ac19c	-0.037782297
162	0x3d1f9144	0.038956895
163	0xbd491a3b	-0.04909728
164	0xbd06a4f2	-0.032872148
165	0xbd8964bf	-0.06708669
166	0xbdd650a2	-0.10464598
167	0x3c359722	0.011083396
168	0xbdd6a0ed	-0.10479913
169	0x3bcff754	0.0063466225
170	0x3cd48dbc	0.02594649
171	0xbd690834	-0.05689259
172	0xbd34b9c3	-0.04412247
173	0xbcd912a1	-0.02649814
174	0xbd205dd6	-0.03915199
175	0xbda5f71f	-0.08103775
176	0x3d9b60a3	0.07586791
177	0xbdf6c926	-0.12050085
178	0x3d04bbd3	0.032405686
179	0xbd56c764	-0.052436247
180	0xbcbfca31	-0.023411842
181	0x3c76a2bf	0.01505345
182	0xbe338766	-0.17532119
183	0xbc9eda1e	-0.019391116
184	0x3cc112a2	0.023568455
185	0x3d32d0ec	0.043656275
186	0x3d53d520	0.051716924
187	0xbcdb2aa2	-0.026753727
188	0xbc6bb8e0	-0.014387339
189	0x3c7aef3f	0.01531583
190	0xbccd2076	-0.025039893
191	0xbdbde990	-0.09273064
192	0xbd223e52	-0.039610215
193	0x3d19eaec	0.037577555
194	0xbdba1b6b	-0.09087261
195	0x3b488f5f	0.0030603034
196	0xb8a95d30	-8.0759055e-05
197	0x3c8c84f5	0.017153243
198	0xbdccc8fe	-0.09999274
199	0x3c59db4a	0.0132969115
200	0x3d1a5c65	0.03768577
201	0xbd1d5f55	-0.038420994
202	0xbc864102	-0.01638842
203	0xbdc7bc8a	-0.09752758
204	0xbcdb845a	-0.026796509
205	0xbc83a04f	-0.016067652
206	0x3d35d408	0.044391662
207	0x3d838e3a	0.06423612
208	0x3d4a93c7	0.049457338
209	0xbd1fe07d	-0.039032448
210	0xbdc4086c	-0.09571919
211	0x3d28bf29	0.04119793
212	0x3c5ad45a	0.013356293
213	0x3c4181d4	0.011810739
214	0xbd3728f7	-0.0447168
215	0x3d0f0ad3	0.034922432
216	0x3d8b681d	0.068069674
217	0xbd8bea81	-0.068318374
218	0xbcfb092f	-0.030644028
219	0x3db3089a	0.08741875
220	0xbd69006b	-0.056885164
221	0xbcb890f4	-0.022530057
222	0x3c128c69	0.008944609
223	0x3db51b83	0.08843138
224	0x3c795a20	0.015219241
225	0xbccdf87d	-0.025142903
226	0xbd8b9dde	-0.0681722
227	0xbdec2cd6	-0.11531989
228	0xbd446f2d	-0.047957588
229	0x3c90e1d6	0.017685812
230	0xbdba8048	-0.09106499
231	0xbd1f89a4	-0.038949624
232	0xbcdaef8b	-0.026725551
233	0x3c8d1c3d	0.01722538
234	0x3ceac909	0.028660314
235	0x3cddd164	0.027077384
236	0xbb405d50	-0.0029352494
237	0x3c078af7	0.008272878
238	0xbdab8649	-0.08375222
239	0x3c6e44a7	0.014542735
240	0xbd017790	-0.031608164
241	0x3be376fd	0.0069416747
242	0xbd36c71b	-0.044623476
243	0xbd25c399	-0.04046974
244	0xbd0b3f2a	-0.033995785
245	0x3c583162	0.0131953675
246	0xbd991e20	-0.07476449
247	0xbdc05bb5	-0.09392492
248	0xbca38513	-0.019960916
249	0xbd9cd414	-0.07657638
250	0x3de52421	0.11188532
251	0x3ce6c507	0.028170122
252	0x3c8e5b8c	0.017377637
253	0xbcc90f48	-0.02454342
254	0xbd904f49	-0.070463724
255	0x3e04d65f	0.12972401

classifier.0.bias f4 [256]
0	0x3f04d464	0.5188658
1	0x3d06f2dc	0.032946452
2	0xbd19d9de	-0.03756129
3	0xbf00a79d	-0.5025576
4	0x3c7c8981	0.015413643
5	0xbd099e96	-0.033598505
6	0xbc4ad134	-0.0123789795
7	0xbf00e2fa	-0.5034634
8	0xbf01344c	-0.50470424
9	0xbefbf9e9	-0.49214104
10	0x3f08d304	0.53446984
11	0xbd2813af	-0.041034397
12	0xbefde901	-0.4959183
13	0x3f02bed6	0.5107244
14	0x3efa4d5a	0.4888714
15	0xbcf7f1b8	-0.030266628
16	0x3f00dd46	0.50337636
17	0x3f0bf23c	0.54666495
18	0xbd11b9a0	-0.035577416
19	0x3efb8ad5	0.49129358
20	0xbb4178cc	-0.0029521463
21	0x3f084f00	0.53245544
22	0xbd2a1bf7	-0.041530576
23	0xbb606792	-0.003424142
24	0xbcf0d67c	-0.02939915
25	0xbef3a24a	-0.47584754
26	0xbb8fe2a2	-0.0043910304
27	0xbeed8fb7	-0.46398708
28	0x3f05decc	0.52293086
29	0x3ef4f072	0.47839695
30	0xbef20dee	-0.47276253
31	0xbc9c6605	-0.019091615
32	0x3ef8e726	0.48613852
33	0xbba59101	-0.005052686
34	0x3f01aad2	0.50651276
35	0x3f0000a1	0.5000096
36	0x3f0b0461	0.54303557
37	0xbcbf04fc	-0.023317806
38	0xbd000948	-0.03125885
39	0x3eff71dd	0.49891558
40	0xbeec754f	-0.4618325
41	0x3ef28ec5	0.4737455
42	0xbef11711	-0.4708791
43	0xbef0ae6d	-0.47008076
44	0x3f02808c	0.50977397
45	0xbc9c1d3a	-0.019056905
46	0xbb4fbc76	-0.0031698025
47	0xbf00e8f4	-0.5035546
48	0x3f02cc8b	0.5109336
49	0x3ef64465	0.48099056
50	0x3efbde23	0.49192914
51	0x3f01db81	0.5072556
52	0xbcd8e720	-0.026477396
53	0x3f04b5aa	0.518397
54	0xbc8f9307	-0.017526163
55	0xbd01066d	-0.03150027
56	0x3f0e569c	0.55600905
57	0x3f03d299	0.5149322
58	0x3f076759	0.5289207
59	0xbb9e8a59	-0.0048382697
60	0xbee914e3	-0.45523748
61	0x3f05abfa	0.5221554
62	0xbc5654e8	-0.013081767
63	0xbd273b4a	-0.040828027
64	0xbcbc2479	-0.02296661
65	0xbd0deaeb	-0.034647863
66	0xbc22a1b6	-0.00992625
67	0xbadadbf2	-0.0016697629
68	0xbc511913	-0.012762326
69	0xbd4cdf76	-0.050017796
70	0xbcda8e62	-0.026679222
71	0xbd1a5c9d	-0.03768598
72	0xbbce7d87	-0.006301585
73	0xbee962d8	-0.45583224
74	0xbcbfb65a	-0.023402382
75	0xbeea60f7	-0.45777103
76	0xbd2a9ce5	-0.041653533
77	0xbb51f9ce	-0.0032039764
78	0x3ee8c0ba	0.4545954
79	0xbd058f32	-0.032607265
80	0xbef7c4e3	-0.483924
81	0xbefb91cd	-0.49134675
82	0xbbabf1e1	-0.00524734
83	0xbd18bcbb	-0.037289362
84	0x3efe1504	0.4962541
85	0xbefad9c4	-0.48994267
86	0xbeffcbec	-0.49960268
87	0xbf03850a	-0.51374876
88	0xbefae16b	-0.49000105
89	0xbd259c36	-0.040432177
90	0xbeec4ee8	-0.4615395
91	0xbee2edfb	-0.4432219
92	0xbeea2a8f	-0.45735595
93	0xbeeba8a0	-0.46027088
94	0xbef8219c	-0.48463142
95	0xbd51d2fe	-0.05122661
96	0xbef31e35	-0.47483984
97	0xbd210ffd	-0.03932189
98	0x3f078be1	0.52947813
99	0x3ef75339	0.4830568
100	0x3efceba8	0.4939854
101	0x3f04026c	0.51566195
102	0xbee6df43	-0.4509221
103	0x3f077d68	0.5292573
104	0xbefa8dca	-0.489363
105	0x3f036a27	0.5133385
106	0xbd256a58	-0.04038462
107	0x3f042357	0.51616424
108	0xbd1d7277	-0.03843924
109	0xbee4657b	-0.44608673
110	0xbef27d9e	-0.47361463
111	0xbef6b413	-0.4818426
112	0xbb9d3e35	-0.0047986754
113	0xbeeb85bf	-0.46000478
114	0x3efa605b	0.48901638
115	0xbf042226	-0.51614606
116	0xbef946a2	-0.486867
117	0xbef7339a	-0.48281556
118	0xbbd1edc7	-0.006406519
119	0xbeed45c2	-0.46342283
120	0x3efd5fa7	0.4948704
121	0xbedea716	-0.4348685
122	0xbf01f0c4	-0.50758004
123	0xbeeb4690	-0.45952272
124	0x3f003f2f	0.5009641
125	0x3f07c249	0.5303083
126	0xbefe73d9	-0.4969776
127	0x3efebc47	0.4975302
128	0x3f0baf07	0.54563946
129	0xbef123e8	-0.47097707
130	0x3f084c07	0.5324101
131	0xba94df75	-0.0011358099
132	0xbc41fdb3	-0.011840272
133	0x3f0332b2	0.5124923
134	0xbcf4ac80	-0.02986741
135	0x3f099ca1	0.5375462
136	0xbbcb49c1	-0.0062038605
137	0xbc29a2f4	-0.010353792
138	0x3eedd81a	0.46453935
139	0xbcd1a0eb	-0.025589427
140	0xbee499be	-0.44648546
141	0x3eeea079	0.46606806
142	0xbbef3449	-0.007299934
143	0xbef7448f	-0.48294494
144	0x3efabf0f	0.4897389
145	0xbcd2cadb	-0.025731495
146	0xbef2a87a	-0.47394162
147	0xbef318cc	-0.47479856
148	0xbef059f8	-0.4694364
149	0xbb866fa9	-0.0041026664
150	0xbef43036	-0.47693032
151	0xbd352453	-0.044224095
152	0x3f08d100	0.5344391
153	0x3f032e09	0.5124212
154	0x3f0110d5	0.5041631
155	0x3f0d19e0	0.5511761
156	0xbcd75475	-0.02628539
157	0xbd26fc8d	-0.040768195
158	0xbef99339	-0.48745134
159	0xbc202caa	-0.009776274
160	0xbeee3a96	-0.46529073
161	0xbbd6d20f	-0.0065558027
162	0xbbdc52c3	-0.006723733
163	0xbd4ae860	-0.049538016
164	0xbd1b0510	-0.037846625
165	0xbc98ebe2	-0.018667165
166	0xbd26ff7d	-0.040770996
167	0x3f0d19cc	0.5511749
168	0xbd0a2a71	-0.03373188
169	0xbf042b16	-0.51628244
170	0xbd42d34f	-0.0475648
171	0x3f07038f	0.52739805
172	0xbef1c6d5	-0.4722201
173	0xbef63ae1	-0.48091796
174	0xbcec3b69	-0.028836923
175	0x3f067aa3	0.5253088
176	0xbeeeed76	-0.46665543
177	0x3f02d73a	0.5110966
178	0xbeddd1a5	-0.4332401
179	0x3f09bfae	0.53808105
180	0x3f01d42a	0.5071436
181	0xbcc6ff83	-0.02429176
182	0xbefa6f4f	-0.48913047
183	0x3ee92106	0.45533007
184	0xbd0cc232	-0.034364887
185	0x3f023dc2	0.50875485
186	0xbf03bb81	-0.51457983
187	0xbef363f3	-0.47537193
188	0xbeef9843	-0.46795854
189	0xbd244964	-0.040109053
190	0xbd54d80e	-0.05196386
191	0x3f056393	0.52105063
192	0xbd095976	-0.033532582
193	0xbed9bce0	-0.42526913
194	0xbef88360	-0.4853773
195	0xbedd9c5d	-0.43283358
196	0xbefdabd3	-0.49545154
197	0xbc6f0174	-0.014587749
198	0xbcb80881	-0.022464992
199	0xbbcbba6a	-0.0062172906
200	0xbcb44837	-0.022007091
201	0xbce6f079	-0.028190838
202	0xbceae436	-0.028673273
203	0xbd0950b8	-0.033524245
204	0x3f05df12	0.52293503
205	0xbd397ed2	-0.04528696
206	0xbee0b77d	-0.4388999
207	0x3edb2f15	0.42809358
208	0xbb60c85d	-0.0034299113
209	0xbbbd94e1	-0.00578557
210	0x3f0cdb22	0.5502187
211	0xbd047010	-0.032333434
212	0xbae2b3e3	-0.0017296042
213	0x3eedc8dd	0.4644231
214	0x3effc2f8	0.49953437
215	0xbc6e515b	-0.014545764
216	0xbf010ea6	-0.50412977
217	0xbed9da6a	-0.4254945
218	0xbee01345	-0.437647
219	0x3eec445f	0.46145913
220	0xbc421cd6	-0.011847695
221	0xbedf2914	-0.43586028
222	0xbae60eee	-0.0017552057
223	0x3f08d3db	0.53448266
224	0xbee780fc	-0.45215595
225	0x3ef03930	0.4691863
226	0x3f0a4718	0.5401473
227	0xbefde579	-0.49589136
228	0xbed98e01	-0.42491153
229	0xbee0d5db	-0.4391316
230	0xbedc1e76	-0.4299199
231	0xbf00f0fa	-0.503677
232	0xbef237fe	-0.47308344
233	0x3f00481c	0.5011003
234	0x3efe34bd	0.4964961
235	0xbc90146a	-0.01758786
236	0xbefca642	-0.49345595
237	0xbd2c8a3f	-0.04212403
238	0xbee8e00f	-0.45483443
239	0xbef5ba83	-0.4799386
240	0xbef1564b	-0.4713615
241	0xbcacc0df	-0.021088062
242	0xbc1a5a5f	-0.00942096
243	0xbef0e279	-0.47047785
244	0xbd0464b3	-0.032322597
245	0xbeed3ab6	-0.46333855
246	0xbb72847e	-0.003700524
247	0xbee855c2	-0.45377928
248	0xbef5228c	-0.4787792
249	0xbc9cb7da	-0.019130636
250	0xbf00aa3c	-0.5025976
251	0xbeecb2c6	-0.46230143
252	0xbef9380d	-0.48675576
253	0xbd3e3f3a	-0.046447016
254	0xbefd533d	-0.49477568
255	0x3ce50e67	0.02796097

classifier.2.weight f4 [1, 256]
0	0x3f38bca6	0.72162855
1	0x3d0feb32	0.03513641
2	0xbbba7822	-0.0056905905
3	0xbf330bfe	-0.69940174
4	0x3c1f363e	0.009717522
5	0x3c9d0c89	0.019171016
6	0x3d2f37f5	0.042777974
7	0xbf2d5ac2	-0.6771661
8	0xbf34fd71	-0.7069922
9	0xbf3aff5b	-0.7304589
10	0x3f53eb32	0.82780755
11	0x3d5eaa43	0.054361593
12	0xbf3c26fd	-0.7349699
13	0x3f4b6959	0.7945762
14	0x3f367f01	0.7128754
15	0x3c8d011f	0.017212449
16	0x3f4ac714	0.7921002
17	0x3eec60b1	0.4616752
18	0x3b66276f	0.003511872
19	0x3f2e1bbf	0.6801109
20	0xbcb7949b	-0.022409728
21	0x3f4fe998	0.8121581
22	0x3d2dbed7	0.042418327
23	0x3c1c2603	0.009530547
24	0x3c84a3b5	0.016191343
25	0xbf3ecaef	-0.745284
26	0x3d582fb7	0.05277988
27	0xbf3a26a9	-0.7271524
28	0x3f51c695	0.8194364
29	0x3f13532d	0.5754879
30	0xbf362cac	-0.71161914
31	0xbd4ff4b6	-0.050770484
32	0x3f635077	0.88794655
33	0xbc2aea48	-0.010431834
34	0x3f5c2892	0.85999405
35	0x3ef50c6c	0.4786104
36	0x3f5afa6d	0.8553837
37	0x3cc4a6ce	0.02400532
38	0x3cbfa37a	0.023393381
39	0x3f4794fa	0.77961695
40	0xbf3778b7	-0.7166857
41	0x3f6401e6	0.89065397
42	0xbf35a63a	-0.70956767
43	0xbf2c4b81	-0.6730271
44	0x3f62a1be	0.8852805
45	0x3d2675cb	0.04063968
46	0x3b88740d	0.004164225
47	0xbf2c8baf	-0.6740064
48	0x3f4fe164	0.81203294
49	0x3f1926a7	0.59824604
50	0x3f43b748	0.7645154
51	0x3f5718fa	0.84022486
52	0xbb5bb25f	-0.0033523066
53	0x3f3da3bb	0.7407796
54	0xbc62ca00	-0.013842106
55	0x3d41776a	0.047233023
56	0x3f5267eb	0.82189816
57	0x3f47015e	0.7773646
58	0x3f5a4526	0.8526176
59	0x3d548ca9	0.051891956
60	0xbf32b859	-0.6981254
61	0x3f59d350	0.8508806
62	0x3ce8366f	0.028346268
63	0xbb62c494	-0.0034602033
64	0xbc154ca5	-0.009112512
65	0x3c9ec6ff	0.019381998
66	0x3b84620b	0.004040008
67	0xbd2c11f9	-0.042009328
68	0x3ca3e81f	0.020008145
69	0x3d5c5ebd	0.053801287
70	0xbcd550dc	-0.026039533
71	0x3b1a2290	0.0023519136
72	0x3c73d855	0.014883121
73	0xbf2d71ff	-0.6775207
74	0x39997bd9	0.00029274708
75	0xbf3ab474	-0.729316
76	0xbc06d655	-0.008229812
77	0xbb86d192	-0.004114338
78	0x3ecfc796	0.4058196
79	0x3cc6962a	0.024241526
80	0xbf348d4e	-0.70528114
81	0xbf2ba561	-0.67049223
82	0xbc847355	-0.016168276
83	0x3bc9e2ae	0.0061610555
84	0x3f2ae46f	0.6675481
85	0xbf2d8e7a	-0.67795527
86	0xbf32cf0d	-0.69847184
87	0xbf33a85d	-0.70178777
88	0xbf32af95	-0.69799167
89	0x3d06fa48	0.03295353
90	0xbf38a23a	-0.7212254
91	0xbf2fb6ef	-0.6863851
92	0xbf3c5715	-0.73570377
93	0xbf2036e4	-0.62583756
94	0xbf35bb18	-0.7098861
95	0x3ba19771	0.0049313833
96	0xbf2bedab	-0.6715953
97	0xbd30bb86	-0.043147586
98	0x3f5b96d3	0.85777014
99	0x3fa08cc5	1.254296
100	0x3f35b41c	0.7097795
101	0x3f870a84	1.0550084
102	0xbf206712	-0.6265727
103	0x3f535de4	0.8256514
104	0xbf34ba09	-0.7059637
105	0x3f50430a	0.81352293
106	0x3d24960a	0.04018215
107	0x3f5b8cb2	0.8576156
108	0x3cc94101	0.02456713
109	0xbf3bac45	-0.7330974
110	0xbf2c6711	-0.67344767
111	0xbf292140	-0.6606636
112	0xbd281d42	-0.041043527
113	0xbf36d7e4	-0.7142317
114	0x3f50df53	0.81590766
115	0xbf2f1f35	-0.68406993
116	0xbf2baddc	-0.67062163
117	0xbf328660	-0.6973629
118	0x3d55ea82	0.052225597
119	0xbf3e730e	-0.7439431
120	0x3eef88df	0.46784112
121	0xbf4dda3c	-0.80411124
122	0xbf342904	-0.70375085
123	0xbf273630	-0.6531706
124	0x3f573875	0.8407052
125	0x3f4d81fa	0.80276453
126	0xbf35dd17	-0.7104048
127	0x3f590371	0.84770876
128	0x3f54d3ac	0.83135486
129	0xbf3ab0bd	-0.7292593
130	0x3f43d6ee	0.7649983
131	0xbd326f25	-0.043563027
132	0x3d37cb95	0.044871885
133	0x3f524e6b	0.82150906
134	0x3cc85830	0.024456114
135	0x3f4e6d27	0.80635303
136	0x3c3690a5	0.011142884
137	0x3d237cb8	0.039913863
138	0x3f305804	0.688843
139	0xbc0bfbc0	-0.008543909
140	0xbf309a24	-0.689852
141	0x3f1d713a	0.61500895
142	0xbd31aa41	-0.043375257
143	0xbf3291f1	-0.6975394
144	0x3f3d4e3f	0.7394752
145	0x3ce74d33	0.028235054
146	0xbf2ebbab	-0.6825511
147	0xbf36cc64	-0.71405625
148	0xbf2cec48	-0.67548037
149	0xbd2ab837	-0.041679587
150	0xbf331fe7	-0.69970554
151	0x3c2df4ec	0.010617476
152	0x3f5870b4	0.8454697
153	0x3f5360ba	0.8256947
154	0x3f47fe85	0.7812274
155	0x3f525614	0.82162595
156	0xbba910e4	-0.005159484
157	0x3d42164f	0.047384556
158	0xbf33578a	-0.7005545
159	0xbacd4a7c	-0.0015662457
160	0xbf3124f9	-0.6919704
161	0x3cfd81ac	0.030945621
162	0x3bbd09fc	0.0057690125
163	0x3d21b0ba	0.03947518
164	0x3d294a9e	0.041330926
165	0xbc65a9db	-0.0140175475
166	0xbc4459c0	-0.011984289
167	0x3f5e825c	0.8691766
168	0x3d3a4dd8	0.045484394
169	0xbf327a7c	-0.69718146
170	0x3c85494b	0.0162703
171	0x3f30c56f	0.6905126
172	0xbf2b0c7e	-0.66815937
173	0xbf3401d2	-0.7031528
174	0x3d32ddab	0.04366843
175	0x3f4d9a5f	0.80313677
176	0xbf447b36	-0.76750505
177	0x3f428c31	0.75995165
178	0xbf2b0b8d	-0.668145
179	0x3f3191d6	0.69363153
180	0x3f024b4f	0.5089616
181	0x3d365cb2	0.044521995
182	0xbf39b0d3	-0.7253544
183	0x3ef61d20	0.48069096
184	0x3d39fb24	0.045405522
185	0x3f6ee6ae	0.9332074
186	0xbf2c08ff	-0.67201227
187	0xbf30f2ce	-0.6912049
188	0xbf395736	-0.723987
189	0x3b9b48c4	0.004738899
190	0x3ca1b0e0	0.01973766
191	0x3f54abd1	0.8307467
192	0x3c1e3000	0.009654999
193	0xbf33496e	-0.7003392
194	0xbf37e2f4	-0.7183068
195	0xbf230e97	-0.6369414
196	0xbf35a1dd	-0.7095011
197	0x3d19fa66	0.037592314
198	0xbc8719ba	-0.01649176
199	0x3cb7f160	0.022453964
200	0x3d4da552	0.05020649
201	0x3d39aa81	0.04532862
202	0x3d2a11ea	0.04152099
203	0xbb433e8d	-0.0029791922
204	0x3f58fe6c	0.84763217
205	0x3bd6f655	0.006560127
206	0xbf266e5c	-0.65012145
207	0x3ef3a0db	0.4758366
208	0xbcca1a70	-0.02467081
209	0xbd15b777	-0.03655192
210	0x3f4387c2	0.76379025
211	0x3cae0d29	0.02124651
212	0xbd0ab332	-0.0338623
213	0x3ecf404a	0.40478736
214	0x3f5c7889	0.8612142
215	0x3aca5be8	0.0015438767
216	0xbf2e1f9e	-0.68016994
217	0xbf3eeb0f	-0.7457742
218	0xbf3b1cae	-0.73090637
219	0x3f181f6d	0.5942295
220	0x3c437652	0.011930065
221	0xbf200b16	-0.62516916
222	0x3cce1573	0.025156712
223	0x3f48dad0	0.7845888
224	0xbf30b1b5	-0.6902116
225	0x3ec28820	0.3799448
226	0x3f4b41ed	0.7939747
227	0xbf2d5388	-0.67705584
228	0xbf063099	-0.52417904
229	0xbf2e9cbd	-0.68207914
230	0xbf201a34	-0.6253998
231	0xbf35d036	-0.7102083
232	0xbf3ca8cf	-0.7369508
233	0x3f0e3259	0.55545574
234	0x3f43dab9	0.7650562
235	0xbb84c190	-0.0040513948
236	0xbf3205c4	-0.6954005
237	0x3a5958cb	0.0008291124
238	0xbf3b6a91	-0.7320948
239	0xbf3375d1	-0.7010165
240	0xbf279079	-0.6545482
241	0x3d457edd	0.04821669
242	0x3bb6f1ad	0.005583009
243	0xbf3acf1b	-0.7297227
244	0xbd15a0ec	-0.03653042
245	0xbf34312e	-0.7038754
246	0x3d627b20	0.055293202
247	0xbf34d1a5	-0.7063239
248	0xbf38d041	-0.7219277
249	0x3d33fc2d	0.043941665
250	0xbf316d3e	-0.69307315
251	0xbf33ec6c	-0.70282626
252	0xbf2dcbb1	-0.67888933
253	0x3b46b168	0.0030318145
254	0xbf2d42e8	-0.67680216
255	0x3d211ce1	0.03933418
