workspace/approaches/Glintr100_siamese_classifier_head_training/scripts/siamese_head_v2.pth (torch, 528143 bytes, 3 tensors)

classifier.0.weight f4 [256, 512]
-0.037399914 -0.022153804 -0.028905047 -0.04223984 -0.0003958076 -0.008750602 -0.016949084 -0.045292705
-0.019673044 -0.031142611 -0.0010075052 0.03780865 -0.0035822706 -0.008786856 0.037067268 0.037024207
0.0024350097 -0.008519402 -0.03146797 -0.040131696 -0.026374213 0.040054433 -0.045210343 0.010256281
-0.03510401 0.0009514124 -0.052081227 0.033439584 0.01068048 -0.0445222 -0.046425305 -0.020539703
-0.009015701 0.027286204 -0.041452475 0.03219369 -0.0026660794 -0.04885391 -0.04284978 -0.042130966
0.029631091 0.012867331 0.029837452 0.039690733 0.009397326 -0.029158056 0.033284303 -0.016854411
0.015672613 -0.0086697005 0.021343227 -0.011020066 0.033290982 -0.012708557 0.006953435 -0.03509424
-0.02170194 -0.006760709 -0.025699703 -0.007580047 -0.041291315 0.026559519 0.0018702856 -0.0061809933
0.0116274655 -0.037970413 -0.026403133 -0.032085076 0.014509075 -0.009013377 -0.048501786 0.031876452
0.0006254467 -0.010623668 0.010468213 -0.01701649 0.008147819 -0.021167198 -0.034844797 -0.007948987
-0.03838596 -0.03495939 0.030446747 -0.040801365 -0.017464655 -0.034912825 0.02429734 -0.024560183
-0.03836559 -0.0052399933 0.012062373 -0.004105851 0.02569451 -0.026966462 0.038979612 -0.03338259
-0.02708751 0.027143477 0.006752794 -0.020481069 0.011838461 -0.028934728 0.027025418 0.011586608
0.019373307 0.028950505 0.03242201 0.0053110938 0.0034376828 -0.022130923 -0.0472063 -0.013049159
0.011993055 -0.047966152 -0.036100473 0.024274044 -0.020096172 -0.014027956 -0.03992476 -0.021755809
0.020556122 0.03865637 -0.042193223 -0.0069172224 0.014984004 -0.029067177 0.012014528 0.027044874
0.021119583 -0.0057059173 -0.039088883 -0.032156743 -0.008220794 -0.042137425 0.019832067 -0.049717728
-0.0137175 -0.018339787 -0.050369125 -0.02109356 -0.017728072 -0.013305545 0.009270471 -0.018828208
-0.010118155 0.010202829 0.038229562 0.013641765 -0.04232086 -0.007620022 0.0363512 0.030944934
0.03037023 -0.019259458 -0.014398283 0.021972023 0.0295728 0.018971764 0.01654828 -0.038230643
-0.012578006 0.03532593 -0.018287862 -0.0322362 -0.02647999 0.030420627 0.004867637 -0.0015061366
-0.027956594 0.021007387 -0.02069142 0.004854186 0.012585064 0.022675598 -0.041093033 -0.039288133
-0.044401597 -0.0073278816 -0.03069559 -0.031794343 0.0025085488 0.010467758 -0.051242243 0.012499064
-0.0475139 -0.013853722 -0.008637023 0.02084073 -0.05011105 0.005652246 0.035878167 -0.046704605
-0.043221954 0.003602537 -0.03787813 0.0058109793 -0.021597395 -0.03809628 -0.01935486 0.035444826
0.011950462 -0.020623554 -0.030748146 -0.0041638766 -0.015877593 -0.011054644 -0.0074472902 0.0036520327
0.02396206 -0.03830369 0.039643016 0.011125853 0.004235517 0.011624678 -0.026540412 -0.014926315
0.009473751 -0.01941539 -0.039591134 -0.037819833 -0.012180887 0.008368797 -0.020063816 -0.019425252
-0.045641087 -0.041220184 0.043106977 -0.039530177 -0.006971045 0.030140005 -0.047868118 -0.044138107
0.028461123 -0.03666061 0.016830733 0.006824929 0.0013605297 -0.046563204 -0.043907367 -0.024267994
0.0266599 0.029886825 -0.0061012637 0.022084113 0.024617516 -0.038603507 -0.013637347 0.00668227
0.012457089 0.009614457 0.029458253 2.5960988e-05 0.026800672 -0.02491919 0.032553263 0.0097909635
00000000: a730 19bd e57b b5bc 47ca ecbc af03 2dbd
00000010: 6684 cfb9 af5e 0fbc ced8 8abc d884 39bd
00000020: 5d29 a1bc ca1e ffbc 440e 84ba 3edd 1a3d
00000030: 87c4 6abb bff6 0fbc d9d3 173d b2a6 173d
00000040: af94 1f3b f694 0bbc 8fe4 00bd 2261 24bd
00000050: bc0e d8bc 1e10 243d 7b2e 39bd f609 283c
00000060: 39c9 0fbd 3568 793a 2053 55bd f2f7 083d
00000070: 2efd 2e3c e95c 36bd 7628 3ebd e142 a8bc
00000080: 97b6 13bc 5187 df3c 12ca 29bd 88dd 033d
00000090: 64b9 2ebb 0a1b 48bd 4083 2fbd 8591 2cbd
000000a0: e7bc f23c 7fd1 523c ac6d f43c c092 223d
000000b0: 3ef7 193c e0dc eebc 1f55 083d 4312 8abc
000000c0: da63 803c 5c0b 0ebc fed7 ae3c 828d 34bc
000000d0: 205c 083d 8d37 50bc a4d9 e33b fabe 0fbd
000000e0: 44c8 b1bc f088 ddbb 2f88 d2bc 0b62 f8bb
000000f0: 1521 29bd 5993 d93c 5f24 f53a ee89 cabb
00000100: 2081 3e3c dd86 1bbd 624b d8bc a46b 03bd
00000110: 79b7 6d3c d8ac 13bc cfa9 46bd e290 023d
00000120: 04f5 233a e50e 2ebc de82 2b3c 2b66 8bbc
00000130: 6e7e 053c d566 adbc 6bb9 0ebd 783c 02bc
00000140: 993a 1dbd 9431 0fbd 756b f93c 551f 27bd
00000150: 0912 8fbc c000 0fbd 370b c73c 7032 c9bc
00000160: 3d25 1dbd 40b4 abbb 42a1 453c 608a 86bb
00000170: 4b7d d23c c5e8 dcbc 16a9 1f3d 2fbc 08bd
00000180: a0e6 ddbc ff5b de3c 8b46 dd3b eac7 a7bc
00000190: 1bf6 413c 8608 edbc 6964 dd3c c2d5 3d3c
000001a0: c5b4 9e3c 9c29 ed3c f1cc 043d af08 ae3b
000001b0: bf4a 613b e94b b5bc 655b 41bd 24cc 55bc
000001c0: 857e 443c 2878 44bd 17de 13bd 5cda c63c
000001d0: baa0 a4bc 83d5 65bc 2588 23bd 3d39 b2bc
000001e0: 5065 a83c 2456 1e3d cdd2 2cbd dea9 e2bb
000001f0: 787f 753c 4a1e eebc 95d8 443c 368d dd3c
00000200: fa02 ad3c b4f8 babb aa1b 20bd cab6 03bd
00000210: 82b0 06bc 4b98 2cbd dc76 a23c d1a4 4bbd
00000220: 5dbf 60bc 523d 96bc db4f 4ebd 67cc acbc
00000230: 763a 91bc 80ff 59bc 2ce3 173c 9d3d 9abc
00000240: 9ec6 25bc c429 273c 9a96 1c3d b681 5f3c
00000250: a358 2dbd 61b1 f9bb ffe4 143d 3b80 fd3c
00000260: fdca f83c 03c6 9dbc c7e6 6bbc acfe b33c
00000270: a842 f23c ac6a 9b3c 4290 873c bc97 1cbd
00000280: fb13 4ebc ecb1 103d 6dd0 95bc 1b0a 04bd
00000290: 90ec d8bc ae34 f93c b380 9f3b 8f69 c5ba
000002a0: 3a05 e5bc af17 ac3c 0e81 a9bc dd0f 9f3b
000002b0: 9631 4e3c 2dc2 b93c 2b51 28bd 98ec 20bd
000002c0: 73de 35bd ba1e f0bb 5175 fbbc c93a 02bd
000002d0: 7766 243b f680 2b3c 63e3 51bd e0c8 4c3c
000002e0: ef9d 42bd b9fa 62bc 4d82 0dbc 2eba aa3c
000002f0: 3f41 4dbd 7a36 b93b fcf4 123d 544d 3fbd
00000300: 8109 31bd 8b18 6c3b 1926 1bbd 076a be3b
00000310: 05ed b0bc d80a 1cbd 158e 9ebc 982e 113d
00000320: dfcb 433c baf2 a8bc 89e3 fbbc 2171 88bb
00000330: ba11 82bc 8a1e 35bc 6608 f4bb f156 6f3b
00000340: 154c c43c 54e4 1cbd b760 223d 3649 363c
00000350: 17ca 8a3b 6f75 3e3c 476b d9bc 818d 74bc
00000360: cb37 1b3c 060d 9fbc 502a 22bd f8e8 1abd
00000370: 5892 47bc 471d 093c df5c a4bc b521 9fbc
00000380: 26f2 3abd 7fd6 28bd f190 303d 65ea 21bd
00000390: 5d6d e4bb 2ce8 f63c 5c11 44bd 29ca 34bd
000003a0: 4d27 e93c 7029 16bd 9be0 893c a7a3 df3b
000003b0: cd53 b23a 0fb9 3ebd 36d8 33bd accd c6bc
000003c0: dd65 da3c 37d5 f43c 1ced c7bb bee9 b43c
000003d0: acaa c93c b61e 1ebd 2e6f 5fbc f2f6 da3b
000003e0: d118 4c3c f585 1d3c 6f52 f13c ccc6 d937
000003f0: 158d db3c 5423 ccbc 9256 053d 476a 203c

classifier.0.bias f4 [256]
-0.037192743 0.551165 -0.54485905 0.19786566 0.6069797 -0.022384696 -0.53790104 -0.039310694
-0.55176806 -0.039618444 -0.53290635 -0.51274973 0.6070089 0.6002525 -0.54122096 -0.54580134
-0.003658057 -0.019956233 -0.03667767 -0.0092598535 0.55808324 -0.57320684 -0.03213441 -0.57795084
-0.032181516 -0.53533196 -0.56334907 -0.026829587 0.5902499 -0.02247111 0.57215756 -0.5742164
-0.56246364 0.559167 -0.53861934 -0.551121 -0.5437601 -0.026742324 -0.58481765 0.59524673
-0.038269956 -0.021450385 -0.042854488 0.574758 -0.56274486 0.5883999 -0.56325567 0.5622904
0.56007093 0.5605451 0.5912293 -0.5952944 -0.57068866 0.56977135 -0.57244736 -0.037773445
-0.57636505 -0.52724713 -0.017293178 -0.049335055 0.58172846 -0.5500014 0.6091869 -0.04362204
-0.019494666 -0.5552467 -0.03941672 -0.038264498 -0.53852516 -0.50645673 0.56459314 -0.030537942
-0.5538112 0.59041786 -0.5208365 -0.57731944 -0.52105933 -0.5058579 -0.006837087 -0.0038792326
-0.038483486 -0.5364019 -0.013587571 -0.02823837 0.6134309 -0.04104781 -0.5516515 -0.015949111
-0.018296497 -0.5710167 0.6094433 0.6389281 0.61447203 -0.5791799 -0.54226804 -0.53772473
0.55786633 -0.021555062 -0.028977156 -0.049476694 -0.52425593 0.603996 0.59063816 -0.5757034
-0.043381404 0.57135963 -0.52634716 -0.55166435 -0.031636275 0.6369428 -0.5290596 -0.022961471
0.57136106 -0.5637863 -0.02081755 -0.54704463 -0.045473374 -0.039386995 -0.55275524 -0.59310937
-0.04076824 -0.01305684 0.56417793 0.5010299 -0.53997594 -0.027424276 -0.55572 -0.042705704
-0.53485346 -0.033220872 0.5717223 0.6100081 -0.5169539 -0.012078084 -0.54384863 -0.5317339
-0.55729926 -0.5662412 -0.01056152 -0.51872736 -0.548904 -0.54421896 -0.0023190428 -0.55689883
0.5869183 -0.5636316 -0.046995863 -0.55568576 -0.036809415 -0.00027167422 -0.038769286 -0.5450232
-0.0031375166 -0.5746525 0.21679145 0.5850244 0.5524692 -0.52265924 0.58532983 -0.016848028
-0.030136576 -0.5096896 -0.008217204 -0.050472 -0.050974417 0.5670643 0.57292014 0.6057268
0.6062201 0.5563393 0.61134523 -0.5854118 -0.5617254 -0.54801434 -0.02964553 -0.58829504
-0.00014637443 0.5629911 0.5737057 -0.01808762 -0.56226146 -0.5516971 -0.5467044 -0.026316885
-0.5895362 -0.53742343 -0.5819751 0.5660315 0.5877177 -0.54828143 0.5900791 -0.038199343
-0.03500725 0.605569 -0.55926526 -0.0012121531 -0.5586642 -0.016365366 0.57035387 0.22282062
0.5866574 -0.5469882 -0.036115345 -0.5296015 0.6243932 -0.009757722 -0.0035681566 -0.53083193
-0.54890424 -0.5011526 -0.033323344 -0.010455244 -0.5589695 -0.007309231 -0.55605024 -0.03219306
-0.022708863 -0.019156415 -0.5505455 -0.03230476 0.5899191 0.5955451 0.58915573 -0.0037588996
-0.032579064 -0.018490143 0.6303097 -0.049263757 0.57363313 0.56447303 -0.02805175 0.6375828
0.17090216 -0.56701064 -0.52173954 -0.032891024 0.5822042 -0.021755666 -0.5402843 0.5507498
-0.0025889126 -0.04139057 0.5684814 -0.031408537 -0.5339794 0.57746273 -0.5690119 -0.005013412
-0.025008902 -0.52060264 0.61384374 -0.034515902 -0.5473485 -0.5129484 -0.5196987 -0.5725382
00000000: 6b57 18bd 2619 0d3f e27b 0bbf 4c9d 4a3e
00000010: 0663 1b3f 1c60 b7bc e2b3 09bf 4004 21bd
00000020: ac40 0dbf f346 22bd 8d6c 08bf 9143 03bf
00000030: ef64 1b3f 26aa 193f 758d 0abf a3b9 0bbf
00000040: 03bc 6fbb 417b a3bc 533b 16bd a4b6 17bc
00000050: 8bde 0e3f afbd 12bf 5f9f 03bd 96f4 13bf
00000060: c4d0 03bd 840b 09bf a537 10bf b9c9 dbbc
00000070: 9e1a 173f 5515 b8bc eb78 123f d9ff 12bf
00000080: 9efd 0fbf 9225 0f3f f5e2 09bf 4416 0dbf
00000090: dd33 0bbf b812 dbbc 9cb6 15bf 1762 183f
000000a0: f5c0 1cbd b8b8 afbc 3088 2fbd 5723 133f
000000b0: 0c10 10bf 60a1 163f 8631 10bf 43f2 0f3f
000000c0: cf60 0f3f e27f 0f3f ce5a 173f 3765 18bf
000000d0: a718 12bf 89dc 113f e98b 12bf 54b8 1abd
000000e0: a98c 13bf abf9 06bf 6caa 8dbc 8e13 4abd
000000f0: 28ec 143f e4cc 0cbf acf3 1b3f 06ad 32bd
00000100: 47b3 9fbc a624 0ebf 6d73 21bd 3cbb 1cbd
00000110: c9dc 09bf 26a7 01bf 2d89 103f b52a fabc
00000120: 92c6 0dbf a025 173f 8a55 05bf 35cb 13bf
00000130: 2564 05bf e77f 01bf a509 e0bb b93a 7ebb
00000140: dca0 1dbd a351 09bf 679e 5ebc 2754 e7bc
00000150: cf09 1d3f c021 28bd 0839 0dbf b6a7 82bc
00000160: 89e2 95bc 272e 12bf 7a04 1c3f cb90 233f
00000170: 0a4e 1d3f 2245 14bf 14d2 0abf 54a8 09bf
00000180: 54d0 0e3f 3e94 b0bc 8061 edbc 13a8 4abd
00000190: a335 06bf 7b9f 1a3f 1034 173f 4c61 13bf
000001a0: b3b0 31bd a044 123f b0be 06bf e039 0dbf
000001b0: 0a95 01bd af0e 233f 7370 07bf b219 bcbc
000001c0: b844 123f 4d54 10bf 9189 aabc 1e0b 0cbf
000001d0: 4a42 3abd 4254 21bd 5e81 0dbf 04d6 17bf
000001e0: 99fc 26bd 5bec 55bc f76d 103f 7f43 003f
000001f0: dd3b 0abf e0a8 e0bc aa43 0ebf 2dec 2ebd
00000200: 28ec 08bf 9c12 08bd 655c 123f 7e29 1c3f
00000210: 1757 04bf 28e3 45bc aa39 0bbf b61f 08bf
00000220: 2aab 0ebf 2ff5 10bf 3a0a 2dbc 51cb 04bf
00000230: f984 0cbf ef51 0bbf 15fb 17bb ec90 0ebf
00000240: 4740 163f 294a 10bf bc7e 40bd 6c41 0ebf
00000250: 78c5 16bd 7f6f 8eb9 8bcc 1ebd a486 0bbf
00000260: cb9e 4dbb 6d1c 13bf 94fe 5d3e 29c4 153f
00000270: 9f6e 0d3f ffcc 05bf 2dd8 153f e004 8abc
00000280: fbe0 f6bc 057b 02bf 74a1 06bc babb 4ebd
00000290: 8dca 50bd 202b 113f e5aa 123f e910 1b3f
000002a0: 3e31 1b3f 416c 0e3f 1f81 1c3f 8cdd 15bf
000002b0: 3ccd 0fbf ab4a 0cbf 2fdb f2bc 819a 16bf
000002c0: 167c 19b9 2f20 103f 60de 123f 7d2c 94bc
000002d0: 5ef0 0fbf 053c 0dbf d2f4 0bbf 8296 d7bc
000002e0: d8eb 16bf 9594 09bf 52fc 14bf 71e7 103f
000002f0: ab74 163f 2c5c 0cbf 6d0f 173f ea76 1cbd
00000300: c363 0fbd 9206 1b3f 022c 0fbf 1ce1 9eba
00000310: 9e04 0fbf a910 86bc b602 123f 172b 643e
00000320: 2e2f 163f 6b07 0cbf afed 13bd f793 07bf
00000330: 3cd8 1f3f dade 1fbc bcd7 69bb 9ae4 07bf
00000340: fd84 0cbf 894b 00bf 0f7e 08bd 794c 2bbc
00000350: a018 0fbf 4682 efbb 4f59 0ebf dfdc 03bd
00000360: f007 babc eaed 9cbc 8df0 0cbf ff51 04bd
00000370: f004 173f a575 183f e9d2 163f df57 76bb
00000380: a071 05bd a478 97bc fa5b 213f cbc8 49bd
00000390: 9fd9 123f 4e81 103f c9cc e5bc a038 233f
000003a0: fa00 2f3e 9c27 11bf b990 05bf bdb8 06bd
000003b0: 560b 153f f038 b2bc 1250 0abf f0fd 0c3f
000003c0: bfaa 29bb 2989 29bd ff87 113f 3da6 00bd
000003d0: e0b2 08bf 99d4 133f c4aa 11bf 8c47 a4bb
000003e0: 78df ccbc 3746 05bf dd24 1d3f 8c60 0dbd
000003f0: 081f 0cbf 9650 03bf f90a 05bf dd91 12bf

classifier.2.weight f4 [1, 256]
0.024197197 0.5795051 -0.56100786 -0.26457155 0.58370703 0.042315923 -0.554474 0.030691842
-0.51096296 0.037145216 -0.60477465 -0.61778635 0.74878216 0.69595546 -0.5833543 -0.55129164
-0.009772065 0.011058965 0.029091636 -0.04284566 0.6879959 -0.5445292 0.0051433714 -0.5406508
-0.02404972 -0.5863313 -0.6675972 0.0011433505 0.61500245 0.031061169 0.73616135 -0.5279936
-0.5760168 0.6915119 -0.6485165 -0.5405788 -0.5491346 -0.0035570627 -0.5359889 0.68898386
-0.04366666 0.035547093 0.042754382 0.69284433 -0.51220524 0.7162001 -0.55539095 0.7232483
0.76611453 0.6579746 0.59888136 -0.6712755 -0.5416145 0.66851884 -0.5138805 0.023287924
-0.53191584 -0.6090626 0.028478123 -0.0005973234 0.65445894 -0.5127346 0.7074646 0.004144186
0.03480814 -0.58089787 0.027699424 0.045312535 -0.61906135 -0.6392285 0.7391953 -0.053840272
-0.6006437 0.7241603 -0.5636109 -0.5203595 -0.6047418 -0.62877554 0.0087927105 -0.002647468
0.0011146347 -0.57254875 0.016346108 0.00033931778 0.6758981 -0.040960338 -0.5863178 0.014872772
0.002067272 -0.5800002 0.61052775 0.64298385 0.6033844 -0.5506214 -0.5540033 -0.61922324
0.6853454 0.029649459 0.032833133 0.026650032 -0.6367174 0.6809808 0.71015227 -0.5471025
0.0004965575 0.7043181 -0.59454554 -0.53676325 0.023312617 0.7011061 -0.5902522 0.052963115
0.6840923 -0.5334455 0.010572655 -0.5178655 -0.0015414876 0.022608057 -0.55450416 -0.5278919
0.05547936 0.0073440964 0.75389385 0.37348336 -0.6059761 0.04894533 -0.55088705 0.002811648
-0.5468892 0.06095519 0.6501882 0.67654693 -0.6056291 0.022765638 -0.58642286 -0.5941657
-0.7504102 -0.5052792 0.039251268 -0.5563537 -0.535421 -0.55580455 0.003977537 -0.5459479
0.7499563 -0.54155767 0.014532768 -0.5243125 -0.0541909 -0.009220031 0.0055537554 -0.6483517
-0.039575268 -0.5791675 -0.23578992 0.723854 0.76319957 -0.5951251 0.7298757 0.054317184
-0.0035363138 -0.6283726 0.044333186 0.037446853 -0.0051293224 0.71246696 0.7270687 0.6840878
0.7207193 0.46307775 0.67729014 -0.5069064 -0.5528602 -0.59786713 0.042443212 -0.54903173
-0.012944794 0.670749 0.71969074 0.0058774985 -0.52986574 -0.620031 -0.5265245 0.030334022
-0.5492016 -0.78407943 -0.564035 0.7430493 0.66126996 -0.5430981 0.671446 0.025427628
0.0088108145 0.5170773 -0.58660084 0.040716548 -0.5117826 0.047032256 0.6764123 -0.21421257
0.7483718 -0.52824956 -0.0005936437 -0.5705373 0.7190628 0.05490949 -0.021466216 -0.5680841
-0.58972675 -0.5793212 0.01873062 0.049396012 -0.57711583 0.013493991 -0.54434645 0.054336082
0.041365143 -0.008699075 -0.5925171 -0.018922232 0.6717422 0.7021497 0.6845922 -0.047665983
0.015416605 0.022533678 0.665767 0.030224975 0.681616 0.72656614 0.021388063 0.59322107
-0.19672346 -0.5162957 -0.6025466 0.038366593 0.6992917 -0.00867372 -0.56384325 0.69034934
-0.033816837 0.04597765 0.66528 0.050219417 -0.56536925 0.72455263 -0.5209081 0.05429842
0.053909995 -0.5742271 0.68726295 0.006777607 -0.54829675 -0.60284877 -0.63140976 -0.5604669
00000000: 3339 c63c 725a 143f 369e 0fbf ec75 87be
00000010: d36d 153f 7653 2d3d 02f2 0dbf 756d fb3c
00000020: 78ce 02bf 9525 183d 83d2 1abf 3f27 1ebf
00000030: 30b0 3f3f 232a 323f b556 15bf 7321 0dbf
00000040: 031b 20bc a930 353c 9551 ee3c ee7e 2fbd
00000050: 8020 303f 4466 0bbf ba89 a83b 1768 0abf
00000060: eb03 c5bc cf19 16bf a6e7 2abf 7adc 953a
00000070: cd70 1d3f fe73 fe3c 1275 3c3f 972a 07bf
00000080: d675 13bf ed06 313f 2d05 26bf 5f63 0abf
00000090: 1694 0cbf 9c1d 69bb 9236 09bf 3f61 303f
000000a0: d0db 32bd d499 113d 381f 2f3d 3f5e 313f
000000b0: e21f 03bf e458 373f 1a2e 0ebf cd26 393f
000000c0: 1520 443f 0671 283f 4a50 193f b6d8 2bbf
000000d0: 3fa7 0abf 0d24 2b3f ac8d 03bf 51c6 be3c
000000e0: a32b 08bf 87eb 1bbf f44a e93c b295 1cba
000000f0: 9f8a 273f 9342 03bf 661c 353f f4cb 873b
00000100: fb92 0e3d b9b5 14bf e7e9 e23c a399 393d
00000110: ce7a 1ebf 7ba4 23bf e73b 3d3f 9e87 5cbd
00000120: c9c3 19bf 9262 393f ce48 10bf 4836 05bf
00000130: 5cd0 1abf 6ff7 20bf 4d0f 103c 2481 2dbb
00000140: ef18 923a 8e92 12bf 46e8 853c 76e6 b139
00000150: a807 2d3f 07c6 27bd ec18 16bf edac 733c
00000160: 127b 073b e57a 14bf 8c4b 1c3f 979a 243f
00000170: 6677 1a3f 86f5 0cbf 29d3 0dbf 6a85 1ebf
00000180: cc72 2f3f 6ce3 f23c 097c 063d 2b51 da3c
00000190: e9ff 22bf c254 2e3f 8acc 353f e90e 0cbf
000001a0: 692b 023a 314e 343f 2334 18bf 5169 09bf
000001b0: 1afa be3c b07b 333f c51a 17bf daef 583d
000001c0: ac20 2f3f e28f 08bf ee38 2d3c d592 04bf
000001d0: be0b caba 8834 b93c fcf3 0dbf ec23 07bf
000001e0: 533e 633d bfa6 f03b 30ff 403f 3639 bf3e
000001f0: 4021 1bbf e67a 483d ef06 0dbf a043 383b
00000200: ee00 0cbf 26ac 793d bc72 263f 2e32 2d3f
00000210: 820a 1bbf 017f ba3c cf1f 16bf 3e1b 18bf
00000220: e21a 40bf fa59 01bf f0c5 203d 326d 0ebf
00000230: 5a11 09bf 3549 0ebf 0056 823b 3ec3 0bbf
00000240: 23fd 3f3f 86a3 0abf d91a 6e3c 5839 06bf
00000250: 47f7 5dbd 9d0f 17bc 47fc b53b 61fa 25bf
00000260: ad19 22bd 5244 14bf ea72 71be 7f4e 393f
00000270: 0c61 433f 1e5a 18bf 22d9 3a3f b27b 5e3d
00000280: 80c1 67bb 07dd 20bf b796 353d df61 193d
00000290: e013 a8bb 3c64 363f 2d21 3a3f 6120 2f3f
000002a0: 0f81 383f 8718 ed3e e362 2d3f 9ec4 01bf
000002b0: 3f88 0dbf d20d 19bf efd8 2d3d 588d 0cbf
000002c0: 6716 54bc 35b6 2b3f a73d 383f 0898 c03b
000002d0: 48a5 07bf 5aba 1ebf 4fca 06bf 0e7f f83c
000002e0: 7a98 0cbf 6eb9 48bf 9964 10bf 7b38 3e3f
000002f0: fd48 293f 7a08 0bbf e3e3 2b3f 9a4d d03c
00000300: 3c5b 103c 2e5f 043f 792b 16bf 65c6 263d
00000310: 2f04 03bf e5a4 403d 5b29 2d3f 8a5a 5bbe
00000320: 4b95 3f3f 5d3b 07bf c19e 1bba bc0e 12bf
00000330: 8014 383f c6e8 603d ebd9 afbc f66d 11bf
00000340: 55f8 16bf 654e 14bf f570 993c 7953 4a3d
00000350: ddbd 13bf e715 5d3c 4a5a 0bbf 838f 5e3d
00000360: 7f6e 293d 9186 0ebc 33af 17bf cc02 9bbc
00000370: 4cf7 2b3f 15c0 333f 6f41 2f3f 683d 43bd
00000380: ee95 7c3c 8c98 b83c b56f 2a3f 5e9a f73c
00000390: 637e 2e3f 3d00 3a3f 0536 af3c 56dd 173f
000003a0: e071 49be f42b 04bf 7e40 1abf 4a26 1d3d
000003b0: c804 333f 381c 0ebc 0858 10bf bcba 303f
000003c0: 8683 0abd 0f53 3c3d ca4f 2a3f e0b2 4d3d
000003d0: 0abc 10bf 487c 393f 3c5a 05bf 0568 5e3d
000003e0: bad0 5c3d 8c00 13bf 77f0 2f3f b016 de3b
000003f0: 2d5d 0cbf 4c54 1abf 12a4 21bf c27a 0fbf
