workspace/approaches/Glintr100_siamese_classifier_head_training/scripts/siamese_head.pth (torch, 528125 bytes, 3 tensors)

classifier.0.weight f4 [256, 512]
00000000: e6af b8ba c853 c4bb ca7c 69bc 841c debb
00000010: e533 983c 413e a4ba 06b1 aabd a559 c23c
00000020: 8c26 863c e04e a83c 2429 3dbd 16ee 91bc
00000030: 93f6 5f3b 607c f33a 6da5 b7bd 8cf5 aebb
00000040: 22a7 003d d5cd 1abd fc4a 9abd e711 13bd
00000050: 2419 de3c 450a be3c 11ad 4a3c 06c0 edbc
00000060: 42f5 c83d fd36 293d a0d5 183d da74 9a3c
00000070: ccbd 88bd e38b ca3c d444 133d d184 1c3d
00000080: 7770 a5bd 43f7 fdbc ba2d 0fbc bed5 24bd
00000090: d62a 91bc aea7 b8bb 59f3 c8bc 300c 25bd
000000a0: ab8f 373c 40c0 1e3d 41fc 0d3d 5266 17bd
000000b0: 2fc5 1b3b 1126 bcbb aaa5 283c 3908 06bd
000000c0: 2a47 bfbc 9f18 5fbc f5c3 9d3d caf7 6cbb
000000d0: 4811 813b 5373 3a3c 37b0 fabc e7a5 34bc
000000e0: af6b 363d 76ca 023d fe3a 64bd 46d8 b13c
000000f0: 60a4 12bd 2b37 603d 5cb1 2b3d 3fb9 0ebb
00000100: 1817 223d 56c3 d1bb 9cbc 97bd a8de 823c
00000110: cd72 dc38 89c8 593c 1803 8abc 7612 2ebc
00000120: 7bdf 23bd 5a24 cc3c 6a0a 05bc 6a0b 553d
00000130: f24d 883c a68d 3cbb 8ebb 97bc 1f2f ae3c
00000140: e07f 83bd a4d2 8b3b 1f94 1b3d 7ce0 b3bb
00000150: 6b27 46bc a146 14bd e169 183d 182e 693d
00000160: 55f9 b13c ae63 72bd fdac 363d 8afe 15ba
00000170: 9114 ed3b bdef 38bd a77a 95bd 57b4 99bc
00000180: f0ef 703d dc3e 36bc 485b 4c3d 827d d53b
00000190: 0a91 d5bc 3103 b73c 9eb0 c33a 4a9e 143d
000001a0: 16b7 23bd d49e f9bd d447 5fbd 1815 f23b
000001b0: 893b 78bc 7800 7c3d ac61 80bc aee6 093c
000001c0: 06e3 04bd 0e3d 083c 1b21 c63c c537 ddbc
000001d0: 2884 febb 0367 bdbc 3085 cc3b 01d2 7c3d
000001e0: 8b8d 8cbc 348e 063d 5d95 04bd 5e43 893c
000001f0: e5a8 06bd 51da 963c 9c70 653c 011d 3dbc
00000200: 7630 b43c d090 49bc 5636 d73c 480f 8dbc
00000210: e646 8aba 7b48 883c 63f4 733d 8214 68bd
00000220: afe6 20bd 67f9 c2bc 5ad9 0f3b f6a6 e0bb
00000230: d320 1dbd aec5 2d3d e5a7 edbc 94a1 b2bc
00000240: 8859 9e3b beba 7cbd 0e25 973c 7937 22bd
00000250: 7df7 5d3d c8d0 83bc 71ee b4bc de95 3fbb
00000260: 69fa 8bbc ff79 ac3d b1fd f1bb e119 00bd
00000270: f010 143d e008 13bd a279 df3c 1fe4 b73c
00000280: ae96 f33b 60f9 66bd befa 10bd 4cb3 0dbd
00000290: 6855 0ebd f0af c2bb 9588 a03c 58b6 1db9
000002a0: 3860 c0bc 8d9b acbc 388e 70bb 2181 163d
000002b0: bb80 1a3d cb23 a4bc 8054 efbc 09ec 833c
000002c0: cf50 b8bc 2268 56bc 8516 0b3c 2aa1 943d
000002d0: 7201 ed3c a27b 093d d15a 6dbd 64c7 64bd
000002e0: 5d10 263d 39fa 153d 13e0 0b3d 16f1 49bd
000002f0: d7c8 733c 51bb 9dbd 3cf4 51bc 3f6d 83bd
00000300: 54ab 7c3c f524 5cbd 999a dcbb 15cb 863c
00000310: 9bae 6a3d 101c 42bc b6d1 f7bb 8fac dcbc
00000320: 902f 10bd a852 333d a79d 153d b667 b8bc
00000330: 7735 203c 22cd be3c 463a 51bd b4ae 03bd
00000340: 4ec9 a8bb 14d7 d1b8 4668 c33c 55cc 80bc
00000350: 693d a93d 2886 9abb dbc3 0c3d 9be9 1d3d
00000360: 7d19 013d 15db 23bd 938e 63bc ec7f b3bc
00000370: 3e8f 2a3d f37b 093d 5d9d 7bbb 7e03 91b9
00000380: de8a eb3c 1f98 4a3d b1ce e93c 4037 4fbd
00000390: f29e 323d e560 233c f682 57bd 62dd 163d
000003a0: 5743 7bbc a570 203d a9a7 cfbc 0eea 4abc
000003b0: c8d6 a0bc b674 0d3d 5521 bfbb 85ae a13b
000003c0: 046f b9bc 08b5 963c 3839 babc afc7 02bd
000003d0: 9b20 e0ba a53a c3bd cb02 a5bd 2e53 623c
000003e0: 0a8a 5dbd 512a 623c a983 b23c d1a3 783d
000003f0: f74f 0bbd d524 7cbc 205e 07bc 9dc2 e6bb
-0.0014090508 -0.005991433 -0.014250943 -0.0067783017 0.018579433 -0.001253076 -0.08334546 0.023724386
0.016375802 0.020545423 -0.046181813 -0.017813724 0.003417407 0.0018576495 -0.08967099 -0.00533933
0.03140939 -0.037793953 -0.075338334 -0.035905745 0.027111597 0.023198256 0.012370364 -0.029022228
0.09812404 0.041312207 0.037313104 0.018854547 -0.06676826 0.024724906 0.03595431 0.0382126
-0.080780916 -0.031001693 -0.008738929 -0.040242903 -0.017720621 -0.0056352234 -0.0245301 -0.040294826
0.011203687 0.038757563 0.034664396 -0.036962815 0.0023768654 -0.0057418426 0.010293404 -0.032722685
-0.023349363 -0.01361671 0.077033915 -0.0036158436 0.0039388277 0.0113800345 -0.030601604 -0.011025882
0.04453629 0.031931363 -0.05572032 0.021709573 -0.03580129 0.054740112 0.04191719 -0.0021777896
0.039572805 -0.0064014597 -0.07409021 0.015975311 0.00010511801 0.01329244 -0.016847178 -0.010624519
-0.04000805 0.024919678 -0.008120159 0.05201284 0.01663873 -0.0028770952 -0.01852205 0.021262703
-0.064208746 0.0042670537 0.037983056 -0.005489407 -0.012094359 -0.03620017 0.03721035 0.056928724
0.021725336 -0.059177093 0.04459857 -0.0005721828 0.0072351177 -0.045150507 -0.07298785 -0.01876275
0.058822572 -0.011123385 0.04989174 0.006515206 -0.026070137 0.022340389 0.0014929955 0.03628377
-0.039969526 -0.12188497 -0.05451186 0.0073877685 -0.015150913 0.061523885 -0.015671574 0.008416815
-0.03244307 0.008315338 0.024185708 -0.027004132 -0.007767219 -0.023120409 0.006241463 0.061723713
-0.017157337 0.03285046 -0.032369006 0.016755756 -0.032875914 0.018414648 0.014003899 -0.01154256
0.021995764 -0.012302592 0.026271027 -0.0172192 -0.0010549694 0.016636124 0.059559237 -0.056660183
-0.039282497 -0.023800565 0.002194962 -0.006855841 -0.03836138 0.04242485 -0.029010722 -0.021805562
0.0048324503 -0.06170153 0.018450286 -0.039603684 0.0541911 -0.016090766 -0.022086354 -0.0029233615
-0.017087178 0.084217064 -0.0073849787 -0.03127468 0.036148965 -0.035897136 0.027279679 0.022447644
0.007433734 -0.056390166 -0.035395376 -0.03459482 -0.03474942 -0.0059413835 0.019596377 -0.00015040615
-0.02348338 -0.021070266 -0.0036705863 0.03674424 0.037720423 -0.020036599 -0.029215097 0.016103761
-0.02249947 -0.013086351 0.008489256 0.07257302 0.028931353 0.03356517 -0.057947937 -0.055854216
0.04054295 0.036615584 0.03414924 -0.049302183 0.014879427 -0.077017434 -0.012814578 -0.064173214
0.015421707 -0.053746182 -0.0067322967 0.016454259 0.057295423 -0.011847511 -0.0075628413 -0.026937751
-0.03520161 0.04378 0.036527302 -0.02251039 0.009778372 0.023291174 -0.051080965 -0.03214903
-0.0051509505 -0.00010005958 0.023853432 -0.015722433 0.08263666 -0.0047156997 0.03436647 0.03855286
0.03151845 -0.040003855 -0.013888973 -0.021911584 0.041640513 0.033565473 -0.0038393356 -0.00027659157
0.02875274 0.04946148 0.028540941 -0.0505898 0.043608613 0.009971832 -0.05261513 0.03683222
-0.015335879 0.039169926 -0.025348501 -0.012384905 -0.019633666 0.034535132 -0.005832831 0.0049341344
-0.022635944 0.01839687 -0.022732362 -0.031928714 -0.0017099561 -0.0953267 -0.08057173 0.013813777
-0.054086722 0.013804034 0.021791296 0.060703102 -0.034011807 -0.015389641 -0.008262187 -0.0070422427

classifier.0.bias f4 [256]
00000000: fa7f 743e 1dbd a6bc facb 8dbe 3d77 34be
00000010: 7a95 8f3e f83e 96bc 5a0a 1dbe 6046 50be
00000020: 3a5b a23e f74b 57be 9a44 8abe 8af4 22be
00000030: 07b6 95bc 4df5 3abd 48e9 c8bc c6f7 343e
00000040: bf28 4abe ecca 0abd c9ae 58be e164 05be
00000050: 3017 7cbe fd18 903e 791b e9bd 8b86 12bd
00000060: 233d 24bd 2336 6abe ab10 7cbe c49a 1bbe
00000070: c51b 263e 948a f83c d0df 28be 2d84 813e
00000080: 870d 2abe dbe0 afbc aae7 17bd 3f9a a63e
00000090: 7b68 5d3e 647c 84be c2fc 3bbe b60b 7e3e
000000a0: a338 5e3e fb15 32be c80a 52be 06c3 6a3d
000000b0: aab7 18be 418a 1abe 1739 713e 71f8 67be
000000c0: 9ae0 7ebe c56e 6d3e 1102 1fbd f180 0cbc
000000d0: 4988 90ba 4d58 74be 7529 f5bd 4e54 d8bd
000000e0: 0fd1 5ebe 301c e7bc 7b36 153d c440 a13e
000000f0: 6f06 693d a8ca 1ebe 7b8a 37bd 6552 1abd
00000100: 9ffc 26bd d671 ddbb a9d9 6bbe b8f1 28bb
00000110: c7c6 1abd 8d96 babb cb06 e7bd 4acf 10bd
00000120: 7189 c8bb 3633 4e3e 968f a1bc 5456 3cbe
00000130: 13e9 ccbd cf9a 07be df99 18bc 0129 25be
00000140: 2901 dd3d 7d57 5abc 30c0 823d 7ed2 34bd
00000150: 5d25 563d 4b7b ee3c 714a cabc 01cf 82be
00000160: 6117 77be 2167 8abe 043b 9cbc 71b6 7bbe
00000170: d431 80be a18d 4bbd dfbc 353e 8b68 103d
00000180: e1b1 543d cc89 57bc 60a7 813e 1b93 52be
00000190: f8b8 903d 6fad 543d 480a 28be eb99 7f3e
000001a0: c377 58be 89fc 883d a132 cebd 1b09 2f3d
000001b0: 7e54 d0bd e932 44be 0240 efbc 8197 913e
000001c0: 7eda 103d 6f57 4ebe 6d8f 4abe 862f adbb
000001d0: 2eeb 4ebe 25fe 08be 3c5b 913e 448c b6bc
000001e0: 5e0a c9bc e559 993e 03ac 183d 4282 67be
000001f0: 2b1d 8abe 5381 ccbc 9981 1b3d a41d e3bd
00000200: f243 64be 67df 03be 3543 5e3c beb7 64be
00000210: 16aa 2ebd cb65 e4bd a41d 1abe 7e28 16bd
00000220: c532 f3bd 92ea 47be 34e4 1fbd e666 3bbd
00000230: 9148 ebbd 1b7a 31be aad9 0dbe bc98 31bd
00000240: 978a 29bc cb16 71be ff83 a33d 8082 673d
00000250: 1233 46be 4d59 1cbe 6a99 4fbe c653 3abd
00000260: ff46 1fbd d131 37be 7ae3 7cbe 705a 24be
00000270: 87f7 09be 8565 2b3d bd41 41be dcd3 19bd
00000280: ee1e 38ba 0e36 1a3d 5fa4 07be 3c9e 82be
00000290: 9520 7b3d ff29 903e 2b39 3cbd 195f d4bb
000002a0: 60ca 3abd 58e7 1bbd da84 46bd c709 1c3d
000002b0: c227 59be c3ab 0fbd 1421 03be ae21 aabb
000002c0: 8a15 e2bd 4762 30bd c9c5 c2bc 5681 ecbc
000002d0: eab4 3bbe 2a6f 2cbe 403e 6bbe 2ddc 48bd
000002e0: 2d5f 18bd aad4 0fbe 7106 363d ab3e 2cbe
000002f0: 5281 413e f195 85bc ec4d 903e e219 3f3d
00000300: e5a9 16be a06a e3bd 62c8 76be 6fe3 f5bd
00000310: 12fb 82bc 4708 19bd 9bd6 29be 8ead 59be
00000320: 6e34 40bc 3738 4fbe 4a80 3cbe 24dc 45bd
00000330: 36fb 4d3d d236 ebbd 97e7 583d e78e 39bd
00000340: 986e 20be 3c46 2fbd f88a 16be a62c 5b3e
00000350: 3c5d d0bd 19f1 6f3e dfcf 0cbe 4304 f3bd
00000360: 016b c0bc a523 24be 00e5 02bd 4d82 86be
00000370: 2818 c9bd a090 24be 041a 26be fd81 cfbd
00000380: 2b6a cfbd 79e1 2fbe 2c19 52be 8b99 8e3e
00000390: 25f3 3fbd 4317 6b3e 22c6 76be dfb3 13bd
000003a0: 7412 d23c 31f5 273d 8a54 14bd a818 debb
000003b0: 1609 82be a7f4 09be ff38 0ebe e6b2 5ebe
000003c0: a82c 4bbd f70b 51bb d636 83bc d39b 33bd
000003d0: 5c38 39bd b633 26be 2518 43be 367f 84be
000003e0: 6e43 263d 7cf2 133d dbba bcbc 67c4 1fbe
000003f0: 44ac 49be 1414 813d 63af 5abc fe65 0fbe
0.23876944 -0.020353848 -0.27694684 -0.17623611 0.2804373 -0.018340573 -0.1533598 -0.20339346
0.31710225 -0.21025072 -0.27005464 -0.15913597 -0.018275274 -0.045644093 -0.0245253 0.17672643
-0.19742106 -0.033884928 -0.21160425 -0.13026763 -0.2461822 0.28144065 -0.11382193 -0.03577284
-0.040097367 -0.22872214 -0.24615733 -0.15195757 0.1622153 0.030339517 -0.16491628 0.25296155
-0.16606723 -0.021469524 -0.037086166 0.32539555 0.21621887 -0.25876153 -0.18358138 0.24809155
0.21701293 -0.17391197 -0.20511925 0.057314895 -0.14913812 -0.15091802 0.23556934 -0.22653367
-0.24890366 0.23186786 -0.03882033 -0.008575664 -0.0011026944 -0.23861809 -0.11970798 -0.10562955
-0.21759437 -0.028211683 0.03642891 0.31494725 0.0568909 -0.15506995 -0.0448098 -0.037676234
-0.040768262 -0.006757955 -0.2303225 -0.0025778841 -0.037787225 -0.0056942166 -0.112805925 -0.035353936
-0.0061199 0.20136723 -0.019721787 -0.18392307 -0.10005393 -0.13242649 -0.0093140295 -0.16128923
0.10791237 -0.013326523 0.06384313 -0.044146053 0.052281726 0.029111525 -0.0246937 -0.25548556
-0.24130012 -0.27031806 -0.01907111 -0.24581315 -0.25038016 -0.049695615 0.1774783 0.03525595
0.05192745 -0.013155412 0.2532301 -0.20563929 0.0706653 0.05192321 -0.16410172 0.24961059
-0.21139435 0.06688792 -0.100682504 0.042733293 -0.101723656 -0.19160046 -0.029205326 0.284359
0.03536462 -0.20150541 -0.19781275 -0.0052852063 -0.20206901 -0.13378198 0.2838992 -0.02228368
-0.024541076 0.29951397 0.03727342 -0.22608283 -0.26975378 -0.02496401 0.03796539 -0.11089638
-0.22291544 -0.1287819 0.013565828 -0.22335717 -0.042642675 -0.11152228 -0.1505037 -0.03665971
-0.11874918 -0.19523075 -0.03903599 -0.04575243 -0.1148845 -0.17331736 -0.13852564 -0.04335855
-0.010347984 -0.23543851 0.07984161 0.05652094 -0.1935542 -0.1526844 -0.20273367 -0.04549005
-0.038886067 -0.17890097 -0.2469615 -0.16050124 -0.1347333 0.041844863 -0.18872733 -0.03755556
-0.0007023652 0.037649207 -0.13246296 -0.25511348 0.06131037 0.2815704 -0.045952957 -0.006481063
-0.045603156 -0.038062423 -0.04846654 0.038095262 -0.21206573 -0.035075914 -0.12805587 -0.005192003
-0.110392645 -0.043062475 -0.023775952 -0.028870266 -0.18330732 -0.1683928 -0.22972965 -0.0490381
-0.03720014 -0.14045969 0.044439737 -0.16820781 0.18896988 -0.01630685 0.2818445 0.046655543
-0.14713247 -0.111043215 -0.24099877 -0.1200627 -0.01598886 -0.03736141 -0.16585772 -0.21257612
-0.01173125 -0.20236288 -0.18408313 -0.048305646 0.0502884 -0.114850655 0.052955236 -0.045302298
-0.15667188 -0.04279159 -0.1470145 0.21403751 -0.10174033 0.23431815 -0.13751172 -0.11866047
-0.023488523 -0.16029222 -0.031956673 -0.26271287 -0.098190606 -0.16070795 -0.16220862 -0.10132215
-0.10127672 -0.17175855 -0.20517415 0.2785152 -0.04686274 0.22958092 -0.24099019 -0.03606021
0.025643565 0.041005317 -0.036213435 -0.0067778416 -0.25397557 -0.13472234 -0.1388893 -0.21747932
-0.049603134 -0.0031898 -0.016017359 -0.043849777 -0.045219764 -0.16230664 -0.19052179 -0.25878304
0.04059165 0.036119923 -0.023038318 -0.15602265 -0.1969462 0.06302658 -0.0133474795 -0.1400375

classifier.2.weight f4 [1, 256]
00000000: 82ec ac3e 6080 2d3d dfef 66be 1621 1dbe
00000010: 7ef2 5c3e eb89 f93c 8935 0dbe 6b3f eabd
00000020: bc0f 943e a969 11be 7a33 3abe c3db fabd
00000030: 8041 093d 7fa3 173d e872 5b3d 5dba ae3d
00000040: 8822 27be 9736 8f3c 9046 f0bd 3cdb f1bd
00000050: 4506 58be 1133 8c3e 0a80 b1bd a345 5d3d
00000060: c753 563d 1738 3dbe 3804 66be c81f a6bd
00000070: c51c 3f3e a26c 743d 32db f7bd f329 9e3e
00000080: e28e debd dd5f cd3c 24d4 323d 5396 c23e
00000090: 56b0 183e a21e 47be e398 c3bd 7c7b 093e
000000a0: 74b4 853e 7cb5 03be aba7 3ebe 6018 1a3d
000000b0: cbe7 00be 1c6d 00be ef5e 043e f68f 08be
000000c0: dc08 87be d869 173e 1056 cc3c 2ea2 803b
000000d0: b7a9 133c 6bfb 87be eba0 edbd 5016 95bd
000000e0: 0e8e 34be 2340 0d3d ba84 493d e6c0 bc3e
000000f0: 8e72 9c3d fda5 93bd d451 a93b 57f7 bd3b
00000100: 3c80 323d 065b 5c3d 19fa 27be d04a 1e3d
00000110: f4db b8bc f335 103d b416 debd 820c 1e3d
00000120: 0f2a 643d d2bb d23d 8513 963c dfa1 0cbe
00000130: a34e a5bd 7b08 c8bd 8f06 fc3c 7d49 c2bd
00000140: 5e44 a83d 6037 973c b172 8f3d e185 393d
00000150: cb25 ea3c 9e90 3c3d 38fb 103c 00f0 69be
00000160: 58f0 46be dd7d 41be be72 b33c 17c6 4abe
00000170: 4071 27be 7173 093d 5c6c 653e 719d 573c
00000180: 9181 ad3d 4842 e13c 9138 213e 0c7d 11be
00000190: e47b bb3d 881f 803d b124 1abe 6452 a53e
000001a0: 6bb7 18be a51f 2e3d c458 afbd b579 603d
000001b0: b9cd dcbd 1160 f8bd 6d4a 463d 4976 b33e
000001c0: f884 3b3d f836 fbbd 2734 f4bd 2b99 ef3a
000001d0: f389 42be 3a14 febd f589 a63e 0986 543d
000001e0: 0638 263d 198d a33e dbd4 333d 8698 63be
000001f0: 2f56 88be 1c66 ff3c 424d e63c c93e a7bd
00000200: e4fa 37be 99ad e3bd 2624 f83b 95c5 41be
00000210: 09a0 97bb 39a0 d1bd fc71 e8bd ef01 aa3b
00000220: 73e9 f9bd 7988 21be 3a22 393d bbda 043d
00000230: a9e1 f2bd f32b 0abe b909 c6bd b1fc 263d
00000240: a504 193d e3d7 16be c854 ac3d e071 e53c
00000250: d8f1 eebd 368f 08be 632f 40be 9957 0b3d
00000260: fc9a 6cbb f9aa d7bd 69c2 97be 596f 21be
00000270: b4c6 d8bd a033 733d ca70 02be a068 f9bc
00000280: ace0 4f3d 835b 7c3d 05e8 e3bd c0e4 2bbe
00000290: ce8d 693d 1849 733e 4ac5 133d bab7 fa3c
000002a0: e4da 033d 5a7a 633d 20bf 53bb c5fa 5c3d
000002b0: fcbc 03be 8046 b33b 3f3f e7bd e822 03bd
000002c0: 3525 c2bd a251 363d 6f91 4d3b df3f 263d
000002d0: a8e9 21be d574 04be f440 89be 0d6d b0bb
000002e0: f5c8 0b3d f8a6 9abd c353 fc3c e49e 19be
000002f0: 4515 d93d 3150 fc37 f2d9 863e 3c16 013d
00000300: bd76 9bbd 89ad d3bd 6b43 33be a604 dfbd
00000310: 0a88 1ebd 7cae a13c 2ec1 e2bd 2aa9 38be
00000320: d47a 0f3d b4c6 19be 923f 29be 73db 6a3d
00000330: 4023 a53d 7a2e 9ebd b59d 2f3d 40df 383d
00000340: abe1 e3bd 5df5 5b3d 7227 dfbd 1329 2d3e
00000350: 5f28 91bd 3c26 6d3e 8ed4 bfbd 579e b7bd
00000360: 53f0 5f3d 2e67 c5bd 1072 d5bc 37c3 51be
00000370: d182 c4bd 4d52 01be 8bd9 0fbe 15e2 b8bd
00000380: 3da5 c2bd ab66 0dbe ecfd 10be 369a 873e
00000390: ee03 ef3c c9ca 6a3e ddfc 2dbe 43f1 633d
000003a0: 1a79 6b3c 4d85 823d 3fdd 313d 36e3 633d
000003b0: 8edf 38be 8a0d b0bd b209 c8bd 4d2a 13be
000003c0: 8884 373d 2a7e 1f3d 0e9b a6bc 6c21 673c
000003d0: 6921 343c 0728 e4bd 5d0a f2bd 3488 9dbe
000003e0: bde5 973d bec8 103d 7cb4 623d 7cef 00be
000003f0: 4cc3 1bbe 6d38 6e3d 85d5 323d adb9 f8bd
0.3377419 0.042358756 -0.22552441 -0.15344653 0.21576878 0.030461272 -0.13789953 -0.11437877
0.28918254 -0.14200462 -0.18183699 -0.122489475 0.03350973 0.037021156 0.05357638 0.0853164
-0.16321766 0.017482085 -0.11732209 -0.11809394 -0.21096142 0.2738271 -0.08667 0.05402149
0.05232599 -0.18478428 -0.22462547 -0.081115305 0.18663318 0.059673913 -0.12102355 0.3089138
-0.108670965 0.025070125 0.043659344 0.38005313 0.14911017 -0.19445279 -0.09550645 0.13426012
0.26114237 -0.128622 -0.18618648 0.037620902 -0.12588422 -0.12541622 0.1292684 -0.13336167
-0.26373947 0.1478647 0.024943382 0.0039255833 0.009012631 -0.26559004 -0.11602958 -0.072796464
-0.17632315 0.034484994 0.049198844 0.3686592 0.07639037 -0.07209394 0.0051672254 0.0057973075
0.043579325 0.053797744 -0.16403998 0.038645566 -0.02256582 0.0352077 -0.10844174 0.038586147
0.055704173 0.1028973 0.018319855 -0.13733624 -0.080716394 -0.097672425 0.030764846 -0.09486673
0.08216165 0.018459022 0.070042975 0.045293692 0.028582474 0.046036355 0.008848958 -0.22845459
-0.19427621 -0.1889567 0.0219053 -0.19802128 -0.16351795 0.03355736 0.22404617 0.013160096
0.084719785 0.027497426 0.15744235 -0.14207858 0.0915449 0.06256014 -0.15053059 0.32289422
-0.14913718 0.042510647 -0.085618526 0.05480357 -0.10781426 -0.12127698 0.04841082 0.35051182
0.045781106 -0.12266344 -0.1192401 0.00182799 -0.18997936 -0.12406202 0.32527128 0.05188564
0.040580772 0.31943586 0.043904167 -0.22226152 -0.26628253 0.03117662 0.028113011 -0.08166272
-0.17966801 -0.111170955 0.0075726686 -0.18923028 -0.004627232 -0.10235638 -0.11349866 0.005188219
-0.1220273 -0.15774716 0.045198657 0.03243516 -0.118594475 -0.13493328 -0.09669823 0.04076833
0.037357945 -0.14730792 0.08414608 0.028008401 -0.11667222 -0.1333588 -0.18768077 0.034019087
-0.003610312 -0.10530657 -0.2964051 -0.15765132 -0.105847746 0.059375405 -0.12738338 -0.030445397
0.050751373 0.06161071 -0.111282386 -0.1678648 0.05702 0.23758352 0.03607682 0.030605186
0.032191172 0.055536605 -0.0032309964 0.05395009 -0.1286506 0.0054710507 -0.1129136 -0.03201571
-0.09479753 0.044511445 0.0031367203 0.040588256 -0.15811789 -0.12935193 -0.26807368 -0.0053840936
0.034127194 -0.07551378 0.03080166 -0.15002018 0.1059976 3.0078083e-05 0.26338154 0.031515345
-0.07591007 -0.103358336 -0.17506187 -0.108895585 -0.038703956 0.019736521 -0.11072002 -0.18033281
0.035029247 -0.15017205 -0.16528156 0.05733819 0.08063364 -0.077237085 0.04287501 0.045134783
-0.11127027 0.053700794 -0.108961955 0.169102 -0.07087778 0.23159117 -0.093667135 -0.08965748
0.05467255 -0.096388206 -0.026055366 -0.20484625 -0.09595264 -0.12629052 -0.1404783 -0.09027497
-0.09504173 -0.13808696 -0.14159364 0.2648484 0.029176679 0.22928919 -0.16990991 0.055650007
0.014372135 0.06373081 0.043423887 0.055636607 -0.1805403 -0.08596332 -0.09767474 -0.14371605
0.044804126 0.03893868 -0.020337608 0.0141070895 0.010994294 -0.11140447 -0.11818383 -0.30767977
0.07416866 0.035347693 0.055347905 -0.12591356 -0.15211219 0.05815928 0.04366066 -0.1214479
